…
Average actions of items: 3.9829051527366324
The number of inters: 656096
The sparsity of the dataset: 99.99932103888175%
Remain Fields: ['user_id', 'item_id', 'rating', 'timestamp']
Wed 13 Aug 2025 13:09:06 INFO  [Training]: train_batch_size = [2048] train_neg_sample_args: [{'distribution': 'none', 'sample_num': 'none', 'alpha': 'none', 'dynamic': False, 'candidate_num': 0}]
Wed 13 Aug 2025 13:09:06 INFO  [Evaluation]: eval_batch_size = [4096] eval_args: [{'split': {'LS': 'valid_and_test'}, 'order': 'TO', 'group_by': 'user', 'mode': {'valid': 'full', 'test': 'full'}}]
Wed 13 Aug 2025 13:09:06 INFO  MyModel(
  (item_embedding): Embedding(164729, 16, padding_idx=0)
  (loss_fct): CrossEntropyLoss()
  (mamba1): MambaBlock(
    (in_proj): Linear(in_features=16, out_features=32, bias=False)
    (x_proj): Linear(in_features=16, out_features=49, bias=False)
    (dt_proj): Linear(in_features=1, out_features=16, bias=True)
    (conv1d): Conv1d(16, 16, kernel_size=(2,), stride=(1,), padding=(1,))
    (out_proj): Linear(in_features=16, out_features=16, bias=False)
  )
  (mamba2): MambaBlock(
    (in_proj): Linear(in_features=50, out_features=100, bias=False)
    (x_proj): Linear(in_features=50, out_features=86, bias=False)
    (dt_proj): Linear(in_features=4, out_features=50, bias=True)
    (conv1d): Conv1d(50, 50, kernel_size=(2,), stride=(1,), padding=(1,))
    (out_proj): Linear(in_features=50, out_features=50, bias=False)
  )
  (fusion): ProjectFusion(
    (sigmoid): Sigmoid()
  )
  (linear_out): Linear(in_features=16, out_features=16, bias=True)
  (LayerNorm): LayerNorm((16,), eps=1e-12, elementwise_affine=True)
  (dropout): Dropout(p=0.43, inplace=False)
  (high_gru): GRU(16, 16, batch_first=True)
)
Trainable parameters: 2656844
Wed 13 Aug 2025 13:09:06 INFO  FLOPs: 372816.0
Wed 13 Aug 2025 13:09:10 INFO  epoch 0 training [time: 2.91s, train loss: 315.0819]
Wed 13 Aug 2025 13:09:10 INFO  epoch 0 evaluating [time: 0.10s, valid_score: 0.000900]
Wed 13 Aug 2025 13:09:10 INFO  valid result: 
…
