…
Average actions of items: 80.28319882611885
The number of inters: 328278
The sparsity of the dataset: 99.68387723638381%
Remain Fields: ['user_id', 'item_id', 'timestamp']
Thu 31 Jul 2025 23:19:26 INFO  [Training]: train_batch_size = [2048] train_neg_sample_args: [{'distribution': 'none', 'sample_num': 'none', 'alpha': 'none', 'dynamic': False, 'candidate_num': 0}]
Thu 31 Jul 2025 23:19:26 INFO  [Evaluation]: eval_batch_size = [4096] eval_args: [{'split': {'LS': 'valid_and_test'}, 'order': 'TO', 'group_by': 'user', 'mode': {'valid': 'full', 'test': 'full'}}]
Thu 31 Jul 2025 23:19:26 INFO  MyModel(
  (item_embedding): Embedding(4090, 16, padding_idx=0)
  (loss_fct): CrossEntropyLoss()
  (mamba1): MambaBlock(
    (in_proj): Linear(in_features=16, out_features=32, bias=False)
    (x_proj): Linear(in_features=16, out_features=49, bias=False)
    (dt_proj): Linear(in_features=1, out_features=16, bias=True)
    (conv1d): Conv1d(16, 16, kernel_size=(2,), stride=(1,), padding=(1,))
    (out_proj): Linear(in_features=16, out_features=16, bias=False)
  )
  (mamba2): MambaBlock(
    (in_proj): Linear(in_features=80, out_features=160, bias=False)
    (x_proj): Linear(in_features=80, out_features=117, bias=False)
    (dt_proj): Linear(in_features=5, out_features=80, bias=True)
    (conv1d): Conv1d(80, 80, kernel_size=(2,), stride=(1,), padding=(1,))
    (out_proj): Linear(in_features=80, out_features=80, bias=False)
  )
  (fusion): ProjectFusion(
    (sigmoid): Sigmoid()
  )
  (linear_out): Linear(in_features=16, out_features=16, bias=True)
  (LayerNorm): LayerNorm((16,), eps=1e-12, elementwise_affine=True)
  (dropout): Dropout(p=0.285, inplace=False)
  (high_gru): GRU(16, 16, batch_first=True)
)
Trainable parameters: 111440
Thu 31 Jul 2025 23:19:26 INFO  FLOPs: 752656.0
Thu 31 Jul 2025 23:19:42 INFO  epoch 0 training [time: 15.31s, train loss: 877.2820]
Thu 31 Jul 2025 23:19:42 INFO  epoch 0 evaluating [time: 0.34s, valid_score: 0.117100]
Thu 31 Jul 2025 23:19:42 INFO  valid result: 
…
