…
Average actions of items: 28.746037255582554
The number of inters: 496904
The sparsity of the dataset: 99.94787492177826%
Remain Fields: ['user_id', 'item_id', 'rating', 'timestamp']
Sat 16 Aug 2025 18:55:39 INFO  [Training]: train_batch_size = [2048] train_neg_sample_args: [{'distribution': 'none', 'sample_num': 'none', 'alpha': 'none', 'dynamic': False, 'candidate_num': 0}]
Sat 16 Aug 2025 18:55:39 INFO  [Evaluation]: eval_batch_size = [4096] eval_args: [{'split': {'LS': 'valid_and_test'}, 'order': 'TO', 'group_by': 'user', 'mode': {'valid': 'full', 'test': 'full'}}]
Sat 16 Aug 2025 18:55:40 INFO  MyModel(
  (item_embedding): Embedding(17287, 64, padding_idx=0)
  (loss_fct): CrossEntropyLoss()
  (mamba1): MambaBlock(
    (in_proj): Linear(in_features=64, out_features=128, bias=False)
    (x_proj): Linear(in_features=64, out_features=100, bias=False)
    (dt_proj): Linear(in_features=4, out_features=64, bias=True)
    (conv1d): Conv1d(64, 64, kernel_size=(2,), stride=(1,), padding=(1,))
    (out_proj): Linear(in_features=64, out_features=64, bias=False)
  )
  (mamba2): MambaBlock(
    (in_proj): Linear(in_features=50, out_features=100, bias=False)
    (x_proj): Linear(in_features=50, out_features=86, bias=False)
    (dt_proj): Linear(in_features=4, out_features=50, bias=True)
    (conv1d): Conv1d(50, 50, kernel_size=(2,), stride=(1,), padding=(1,))
    (out_proj): Linear(in_features=50, out_features=50, bias=False)
  )
  (fusion): ProjectFusion(
    (sigmoid): Sigmoid()
  )
  (linear_out): Linear(in_features=64, out_features=64, bias=True)
  (LayerNorm): LayerNorm((64,), eps=1e-12, elementwise_affine=True)
  (dropout): Dropout(p=0.45, inplace=False)
  (high_gru): GRU(64, 64, batch_first=True)
)
Trainable parameters: 1180012
Sat 16 Aug 2025 18:55:41 INFO  FLOPs: 3200064.0
Sat 16 Aug 2025 18:56:09 INFO  epoch 0 training [time: 26.24s, train loss: 1470.7744]
Sat 16 Aug 2025 18:56:11 INFO  epoch 0 evaluating [time: 1.57s, valid_score: 0.019200]
Sat 16 Aug 2025 18:56:11 INFO  valid result: 
…
